…
Instructions for updating:
Use tf.where in 2.0, which has the same broadcast rule as np.where
Shape of samples weights before splitting: (48882,)
Shape of samples array: (48882, 44100)
Shape of labels array: (48882, 2)
~~~~~~~~~~~~~~~~
finished split
Model: "model"
_________________________________________________________________
Layer (type)                 Output Shape              Param #   
=================================================================
input_1 (InputLayer)         [(None, 44100, 1)]        0         
_________________________________________________________________
conv1d (Conv1D)              (None, 44100, 16)         160       
_________________________________________________________________
conv1d_1 (Conv1D)            (None, 44100, 16)         2320      
_________________________________________________________________
max_pooling1d (MaxPooling1D) (None, 2756, 16)          0         
_________________________________________________________________
dropout (Dropout)            (None, 2756, 16)          0         
_________________________________________________________________
conv1d_2 (Conv1D)            (None, 2756, 32)          1568      
_________________________________________________________________
conv1d_3 (Conv1D)            (None, 2756, 32)          3104      
_________________________________________________________________
max_pooling1d_1 (MaxPooling1 (None, 689, 32)           0         
_________________________________________________________________
dropout_1 (Dropout)          (None, 689, 32)           0         
_________________________________________________________________
conv1d_4 (Conv1D)            (None, 689, 32)           3104      
_________________________________________________________________
conv1d_5 (Conv1D)            (None, 689, 32)           3104      
_________________________________________________________________
max_pooling1d_2 (MaxPooling1 (None, 172, 32)           0         
_________________________________________________________________
dropout_2 (Dropout)          (None, 172, 32)           0         
_________________________________________________________________
conv1d_6 (Conv1D)            (None, 172, 256)          24832     
_________________________________________________________________
conv1d_7 (Conv1D)            (None, 172, 256)          196864    
_________________________________________________________________
global_max_pooling1d (Global (None, 256)               0         
_________________________________________________________________
dropout_3 (Dropout)          (None, 256)               0         
_________________________________________________________________
dense (Dense)                (None, 64)                16448     
_________________________________________________________________
dense_1 (Dense)              (None, 1028)              66820     
_________________________________________________________________
dense_2 (Dense)              (None, 2)                 2058      
=================================================================
Total params: 320,382
Trainable params: 320,382
Non-trainable params: 0
_________________________________________________________________
None
Train on 16294 samples, validate on 16294 samples
Epoch 1/100
   32/16294 [..............................] - ETA: 7:15 - loss: 0.6933 - auc: 0.5000 - acc: 0.5000
…
WARNING:tensorflow:From /home/gamagee/.local/lib/python3.5/site-packages/tensorflow/python/ops/math_ops.py:3066: to_int32 (from tensorflow.python.ops.math_ops) is deprecated and will be removed in a future version.
Instructions for updating:
Use tf.cast instead.
2019-07-17 06:18:52.442453: I tensorflow/stream_executor/dso_loader.cc:152] successfully opened CUDA library libcublas.so.10.0 locally
Shape of samples weights before splitting: (48882,)
Shape of samples array: (48882, 44100)
Shape of labels array: (48882, 2)
~~~~~~~~~~~~~~~~
finished split
_________________________________________________________________
Layer (type)                 Output Shape              Param #   
=================================================================
input_1 (InputLayer)         (None, 44100, 1)          0         
_________________________________________________________________
conv1d (Conv1D)              (None, 44100, 16)         160       
_________________________________________________________________
conv1d_1 (Conv1D)            (None, 44100, 16)         2320      
_________________________________________________________________
max_pooling1d (MaxPooling1D) (None, 2756, 16)          0         
_________________________________________________________________
dropout (Dropout)            (None, 2756, 16)          0         
_________________________________________________________________
conv1d_2 (Conv1D)            (None, 2756, 32)          1568      
_________________________________________________________________
conv1d_3 (Conv1D)            (None, 2756, 32)          3104      
_________________________________________________________________
max_pooling1d_1 (MaxPooling1 (None, 689, 32)           0         
_________________________________________________________________
dropout_1 (Dropout)          (None, 689, 32)           0         
_________________________________________________________________
conv1d_4 (Conv1D)            (None, 689, 32)           3104      
_________________________________________________________________
conv1d_5 (Conv1D)            (None, 689, 32)           3104      
_________________________________________________________________
max_pooling1d_2 (MaxPooling1 (None, 172, 32)           0         
_________________________________________________________________
dropout_2 (Dropout)          (None, 172, 32)           0         
_________________________________________________________________
conv1d_6 (Conv1D)            (None, 172, 256)          24832     
_________________________________________________________________
conv1d_7 (Conv1D)            (None, 172, 256)          196864    
_________________________________________________________________
global_max_pooling1d (Global (None, 256)               0         
_________________________________________________________________
dropout_3 (Dropout)          (None, 256)               0         
_________________________________________________________________
dense (Dense)                (None, 64)                16448     
_________________________________________________________________
dense_1 (Dense)              (None, 1028)              66820     
_________________________________________________________________
dense_2 (Dense)              (None, 2)                 2058      
=================================================================
Total params: 320,382
Trainable params: 320,382
Non-trainable params: 0
_________________________________________________________________
None
Train on 16294 samples, validate on 16294 samples
Epoch 1/95
   32/16294 [..............................] - ETA: 18:54 - loss: 0.3635 - auc: 0.7959 - acc: 0.8125
…
